net.pth (torch, 4823 bytes, 5 tensors)

layer1.weight f4 [6, 1, 3, 3]
0	0xbe88c3c2	-0.2671185
1	0xbe272130	-0.16321254
2	0xbc22a2fd	-0.009926555
3	0x3e96ffa6	0.2949192
4	0x3e3a2f02	0.18181995
5	0x3e460c71	0.19340684
6	0x3e0bd31b	0.13654749
7	0x3e9a7899	0.30170134
8	0xbbe3220a	-0.006931548
9	0xbdc5d1fe	-0.096591935
10	0xbe4acaf1	-0.19803979
11	0x3e89d649	0.269213
12	0xbd7034e5	-0.058644194
13	0x3e71c8e8	0.23611796
14	0x3e43134c	0.1905033
15	0x3c93691d	0.017994458
16	0x3d1b76db	0.037955146
17	0x3de0c445	0.109749354
18	0x3ea5f930	0.32416677
19	0x3e8cedf2	0.27525288
20	0xbe4f320b	-0.20233934
21	0x3e491225	0.19635828
22	0xbe4f6ddc	-0.20256752
23	0x3e6c6e15	0.23088868
24	0xbe055341	-0.1302004
25	0xbda27770	-0.07932937
26	0x3d863964	0.06553915
27	0x3e9b0b4e	0.30282062
28	0x3e418a6e	0.18900463
29	0xbe2a8b4b	-0.16654699
30	0x3e3d3ff3	0.18481426
31	0xbe5b5e52	-0.21422699
32	0xbd8a1638	-0.06742519
33	0x3e6b48dd	0.22977014
34	0xbea94127	-0.3305752
35	0x3e3644f0	0.17799735
36	0x3e1c756a	0.15279165
37	0xbdd7596a	-0.10515101
38	0xbca550e2	-0.02018017
39	0x3dec1a2c	0.115284294
40	0x3e8fa420	0.28054905
41	0x3e40e69e	0.18837973
42	0xbd9df45b	-0.07712623
43	0x3e28bc98	0.16478193
44	0xbe6f77d1	-0.2338555
45	0xbdcfdeee	-0.10149942
46	0xbe516d61	-0.20451881
47	0xbea4a1e7	-0.32154772
48	0xbe183fb4	-0.14868051
49	0xbcf505cc	-0.02990999
50	0xbdf5808d	-0.1198741
51	0xbd389757	-0.045066204
52	0xbe616d95	-0.22014458
53	0x3d4e3315	0.050341684

layer1.bias f4 [6]
0	0x3c2a80ee	0.010406716
1	0x3e45a49c	0.19301075
2	0x3eb87b3f	0.3603153
3	0x3e0e6973	0.13907413
4	0xbe1af6b3	-0.15133171
5	0xbd15441d	-0.03644191

layer2.weight f4 [10, 6, 3, 3]
0	0xbdbaef18	-0.09127635
1	0xbb1b1e83	-0.002366931
2	0x3d85bde2	0.06530358
3	0xbdbd18a7	-0.09233218
4	0x3e08dc1d	0.13365217
5	0xbdece2bd	-0.115666844
6	0x3dec3ab6	0.11534636
7	0x3e0ce99f	0.13760994
8	0xbd12d20e	-0.035844855
9	0x3cdf65a2	0.027270142
10	0xbc749aff	-0.014929532
11	0x3de94755	0.11390559
12	0x3d8ffe60	0.0703094
13	0xbd963a41	-0.0733533
14	0xbd7208c2	-0.059090383
15	0xbd9971ae	-0.07492386
16	0xbdee394b	-0.116320215
17	0x3be9ed21	0.0071388637
18	0x3c4bc8d8	0.012438022
19	0xbc137572	-0.009000169
20	0xb966d44d	-0.00022013597
21	0xbdd1aec8	-0.10238415
22	0x3c95a8eb	0.018269023
23	0x3da27eca	0.07934339
24	0x3e0580f0	0.13037467
25	0xbda5b7f7	-0.08091729
26	0x3bf43bed	0.007453433
27	0xbc86805b	-0.016418627
28	0xbd84af5a	-0.06478758
29	0x3d8779ad	0.06615005
30	0x3caae408	0.020860687
31	0x3cb55a28	0.022137716
32	0xbc34f13d	-0.011043844
33	0x3d292097	0.041290846
34	0x3d8670fc	0.06564519
35	0x3de2a0aa	0.110658005
36	0x3df58862	0.119889036
37	0xbde200ee	-0.110353336
38	0x3bc9796e	0.0061485087
39	0x3bbd63ef	0.0057797353
40	0xbd1abc53	-0.037777256
41	0xbdea836e	-0.114508495
42	0x3d5da64e	0.05411368
43	0xbdacc26a	-0.08435519
44	0x3d3c3923	0.045952927
45	0x3b8c8c77	0.0042892057
46	0x3d7038fd	0.0586481
47	0xbb0ecd03	-0.0021789677
48	0xbd4b3ae3	-0.049616706
49	0xbcce3be7	-0.025175048
50	0xbda9ef86	-0.082976386
51	0xbd35c850	-0.044380486
52	0x3d61563c	0.05501388
53	0xbc94b85d	-0.018154318
54	0xbdd17c4e	-0.10228787
55	0xbd652579	-0.05594394
56	0xbc4318cf	-0.01190777
57	0xbdac5583	-0.084147476
58	0x3e029d2d	0.1275527
59	0xbd18d724	-0.03731455
60	0x3dd76044	0.10516408
61	0x3d1ecab7	0.038767543
62	0xbd35b9c9	-0.04436663
63	0xbca0dd81	-0.019636871
64	0x3ce6c76f	0.02817127
65	0x3d2b8c00	0.04188156
66	0xbd10f6ab	-0.03539149
67	0xbdd8fcfd	-0.10595129
68	0xbe0c1eee	-0.13683674
69	0xbd621e69	-0.055204783
70	0x3deefb81	0.11669064
71	0x3d832bf5	0.064048685
72	0xbd48b7e6	-0.049003504
73	0x3dbd647a	0.0924768
74	0xbd9152d9	-0.0709588
75	0x3d885e31	0.066585906
76	0xbdc75aed	-0.097341396
77	0xbc307964	-0.010771129
78	0xbdffe3f4	-0.124946505
79	0xbdedebca	-0.11617239
80	0xbcb09482	-0.021555189
81	0x3ca58710	0.020206004
82	0xbd6f83b4	-0.05847521
83	0xbd727dd4	-0.05920203
84	0x3d0810c4	0.033219114
85	0xbe0e469d	-0.13894124
86	0x3d040a33	0.03223629
87	0x3df2dd87	0.11858659
88	0x3d5c6805	0.05381014
89	0xbbe9c030	-0.0071335062
90	0xbdcccb5f	-0.099997275
91	0xbd999857	-0.0749976
92	0x3e0b9378	0.13630474
93	0xbdda774c	-0.10667285
94	0x3d19491e	0.037423246
95	0x3d243260	0.040087104
96	0xbb837819	-0.0040121195
97	0xbdf70db4	-0.120631605
98	0x3d495691	0.04915482
99	0xbc9d6605	-0.019213686
100	0xbc68f55f	-0.014218657
101	0xbce29926	-0.027660917
102	0xbd7b38f5	-0.061333615
103	0x3d9d26fa	0.0767345
104	0xbdd96c57	-0.10616367
105	0x3df9819a	0.12182923
106	0x3d172bc9	0.03690699
107	0xbdbbbcc1	-0.09166861
108	0x3dbea32e	0.09308468
109	0x3c24d303	0.010060075
110	0xbb935869	-0.0044966233
111	0xbdf9b3d4	-0.121925026
112	0x3e147a30	0.14499736
113	0x3bb480d2	0.0055085206
114	0xbdaf4c07	-0.08559423
115	0x3d8059c0	0.062671185
116	0x3d7f7ebd	0.062376726
117	0x3cb6912b	0.022286018
118	0xbd726c20	-0.059185147
119	0xbdf1cc5e	-0.11806558
120	0xbdfcf033	-0.12350502
121	0x3df1b93c	0.11802909
122	0xbd7e5ec9	-0.062102113
123	0x3d7e8909	0.062142406
124	0xbd5b9431	-0.053608123
125	0x3d61fa33	0.05517025
126	0x3dbcc7a9	0.0921777
127	0x3b5cab9a	0.0033671618
128	0xbd103840	-0.035209894
129	0x3da11c0f	0.0786668
130	0xbcaf7541	-0.021418216
131	0xbde9ad07	-0.114099555
132	0x3e0f8175	0.14014228
133	0x3e0f2d3a	0.13982096
134	0xbcaf6334	-0.021409608
135	0x3dbb8319	0.09155864
136	0xbde51f45	-0.11187605
137	0x3d816724	0.06318501
138	0x3dfc2d92	0.12313379
139	0xbd8ee2b5	-0.06976835
140	0xbd4c02ca	-0.049807347
141	0xbd7e7660	-0.06212461
142	0xbc82d088	-0.015968576
143	0x3e117458	0.14204538
144	0xbd17805d	-0.03698765
145	0xbdea236d	-0.11432538
146	0x3db95572	0.090495005
147	0x3d87bd2e	0.0662788
148	0x3d176bd1	0.036968056
149	0x3e09866a	0.13430181
150	0xbcf090b0	-0.029365867
151	0x3d847410	0.0646745
152	0x3cacdff8	0.02110289
153	0x3d7ff2fb	0.062487584
154	0x3c3762c7	0.011192984
155	0xbd536ab9	-0.05161545
156	0x3db2788f	0.08714401
157	0xbd938b9d	-0.072043635
158	0xbdedddfc	-0.11614606
159	0xbd0ba704	-0.034094825
160	0xbd9715bb	-0.07377192
161	0x3e04ecf1	0.12981011
162	0x3c6d3ba5	0.014479552
163	0x3d5d2242	0.05398775
164	0x3daf50f4	0.085603625
165	0x3e035ac8	0.12827599
166	0x3d9533e9	0.07285292
167	0x3d511e8e	0.05105453
168	0x3abf3d5f	0.0014590434
169	0x3df8d2fc	0.12149617
170	0xbd362b79	-0.044475053
171	0xbd6de311	-0.058077876
172	0x3da3e191	0.08002008
173	0x3dfce15e	0.12347673
174	0xbcfc94f4	-0.030832745
175	0x3dbb5d2b	0.0914863
176	0x3dc9832e	0.09839474
177	0xbd666f4d	-0.05625849
178	0xbd52aff1	-0.051437322
179	0x3d6fa742	0.05850912
180	0xbdb79e2c	-0.08965716
181	0x3db7b125	0.089693345
182	0x3df92b3a	0.12166448
183	0x3d5bb9bf	0.05364394
184	0x3e036e41	0.12835027
185	0x3d9f188d	0.077683546
186	0x3def96e0	0.11698699
187	0xbe003a07	-0.12522136
188	0x3cbf1a38	0.023327932
189	0x3db5ac87	0.088707976
190	0x3de60e6f	0.11233222
191	0x3d98fe8d	0.07470427
192	0xbd4b4dd2	-0.049634762
193	0x3c86af70	0.016441077
194	0x3c480dfd	0.012210366
195	0x3d502069	0.05081216
196	0xbdfaf4d1	-0.12253726
197	0xbdd78610	-0.10523617
198	0xbdb58baf	-0.08864533
199	0xbda74a7f	-0.08168506
200	0xbced72b7	-0.028985364
201	0xbdf63c15	-0.120231785
202	0xbb8c76cc	-0.0042866226
203	0xbdf51f2f	-0.119688384
204	0x3df256b8	0.118329465
205	0xbd90c8fd	-0.070695855
206	0xbdcb0a96	-0.099141285
207	0xbb2ed3aa	-0.0026676455
208	0x3de0c98c	0.10975942
209	0x3dcf18fe	0.10112189
210	0x3dd6228b	0.10455807
211	0xbd0ddcac	-0.034634277
212	0x3d961149	0.07327516
213	0xbde3a478	-0.11115354
214	0x3d28ef0f	0.04124361
215	0x3da28b47	0.07936721
216	0x3d8bf60a	0.068340376
217	0x3d8915b7	0.06693595
218	0x3d21df29	0.039519463
219	0xbaa16e94	-0.001231628
220	0x3d5d802c	0.054077312
221	0xbde2d390	-0.110755086
222	0x3cb8dc68	0.022566035
223	0x3d32c7c0	0.043647528
224	0xbd52c470	-0.05145687
225	0x3e02f4d3	0.12788706
226	0x3d398d19	0.045300577
227	0xbdf1f98d	-0.11815176
228	0xbbea9dbf	-0.007159918
229	0xbdb080ee	-0.086183414
230	0xbd8d4730	-0.068983436
231	0x3d879219	0.06619663
232	0x3c82301f	0.015892087
233	0xbdefa8de	-0.11702131
234	0xbde51be4	-0.1118696
235	0x3dac6bb0	0.08418977
236	0x3cf2e302	0.029649261
237	0x3d48405c	0.048889503
238	0x3dd57947	0.104235224
239	0x3d4d82f2	0.050173707
240	0x3cf87307	0.030328287
241	0xbc2128b1	-0.009836362
242	0xbdbd4a24	-0.09242657
243	0xbdb914bd	-0.09037159
244	0x3d354a03	0.044260036
245	0x3d950ceb	0.072778545
246	0xbc2057ee	-0.009786589
247	0xbd9666c0	-0.07343817
248	0xbd04bcbd	-0.032406557
249	0xbd530ed6	-0.05152782
250	0x397b0ee5	0.00023942774
251	0x3e01012e	0.12598106
252	0x3da8b63b	0.08237883
253	0x3cfda13f	0.030960677
254	0xbddf37d8	-0.10899323
255	0x3df4a5d8	0.11945695

layer2.bias f4 [10]
0	0x3dea4034	0.11438027
1	0x3d83f1e4	0.06442621
2	0x3da7cc8f	0.08193313
3	0x3dd72108	0.10504347
4	0x3dc13678	0.09434217
5	0xbd850f78	-0.06497091
6	0x3d77d05e	0.06050145
7	0xbdc9f029	-0.0986026
8	0xbd9a72b9	-0.07541413
9	0xbd7a930c	-0.06117539

readout.weight f4 [1, 10, 3, 3]
0	0xbda4ea0b	-0.08052453
1	0x3d4183d3	0.047244858
2	0x3c29ea9a	0.010370875
3	0xbdd71675	-0.1050233
4	0x3d21b0b5	0.03947516
5	0xbd2977c4	-0.041373983
6	0xbd3002b5	-0.04297133
7	0x3dafd596	0.0858566
8	0xbd4e20a5	-0.0503241
9	0x3dc92497	0.09821432
10	0x3d825ae1	0.0636499
11	0x3d838c06	0.06423192
12	0x3db3b685	0.08775047
13	0xbd8ca05e	-0.06866525
14	0xbdbd9b87	-0.0925818
15	0xbcf637b7	-0.030055864
16	0xbd1a2d1d	-0.03764068
17	0x3dee2411	0.11627973
18	0xbce8d928	-0.02842386
19	0xbc49a282	-0.012306811
20	0xbdb52402	-0.088447586
21	0xbda56c62	-0.08077313
22	0xbda8bbd5	-0.08238951
23	0xbd06148b	-0.032734435
24	0xbd35e5e0	-0.04440868
25	0xbd258820	-0.040413022
26	0x3d9d404e	0.07678281
27	0xbdc85be3	-0.09783151
28	0x3d5603fa	0.052249886
29	0x3d7a25c9	0.06107119
30	0x3cd20372	0.025636408
31	0xbd8252e7	-0.063634686
32	0xbcc15d48	-0.02360405
33	0xbdc4e981	-0.0961485
34	0xbdc765a2	-0.09736182
35	0xbdb9636c	-0.09052166
36	0xbdc74853	-0.097305916
37	0xbd5276b9	-0.051382754
38	0xbd406057	-0.046966877
39	0xbdb85049	-0.08999688
40	0x3b567a68	0.0032726768
41	0x3d09b534	0.033620074
42	0xbc9a6743	-0.018848067
43	0x3d069903	0.032860767
44	0x3c6d9b68	0.014502384
45	0x3d209410	0.039203703
46	0x3b8d624d	0.004314697
47	0x3d05f966	0.032708548
48	0x3ba15ba1	0.004924253
49	0x3d3d8958	0.04627356
50	0xbdcd67b7	-0.10029548
51	0x3d5434f6	0.05180832
52	0xbce78e15	-0.028265992
53	0x3d0a48ed	0.033760954
54	0xbdba7492	-0.09104265
55	0x3bccd718	0.006251227
56	0x3cdf4d45	0.027258525
57	0xbd2c41fd	-0.04205512
58	0x3d5542e5	0.05206575
59	0x3da1af57	0.078947715
60	0xbd870640	-0.06592989
61	0xbda5c5a4	-0.080943376
62	0x3d9a420a	0.07532127
63	0x3d31a945	0.04337432
64	0x3d5c1256	0.053728424
65	0x3d1955cd	0.03743534
66	0xbda48510	-0.08033192
67	0x3d3744fc	0.044743523
68	0xbdc393e6	-0.09549694
69	0x3d097b2c	0.03356473
70	0x3d843332	0.06455077
71	0x3cbb32b8	0.022851333
72	0xbd5abf89	-0.05340532
73	0x3c30dcb4	0.010794807
74	0x3da607c5	0.08106951
75	0xbd04491c	-0.032296285
76	0xbd809e93	-0.06280246
77	0x3da15aa0	0.078786135
78	0x3d92abbd	0.07161663
79	0xbd9a471e	-0.07533096
80	0x3c1ba59f	0.009499936
81	0xbd99cf6d	-0.075102665
82	0x3db72d8b	0.089442335
83	0x3bb30aee	0.0054639494
84	0xbd2b8a3f	-0.04187989
85	0xbd98a4aa	-0.07453282
86	0x3d95ed35	0.07320634
87	0xbc8e1363	-0.017343229
88	0x3d320fa8	0.043471962
89	0x3de28936	0.11061327
